2025-10-14 13:03:34,970 [INFO ]  Logging file is results/HNeRV_Bunny_1280x640/Bunny_e300_b1_lr0.0005_l2/Encoder_0.31M_Decoder_2.65M_Total_2.66M/network-wise_calib/hadamard-True_max-init_batch2_CW_weight0.01_brange20-2_warmup0.2_lr0.003/20251014_130334.log
2025-10-14 13:03:34,970 [INFO ]  [PID] 1661232
2025-10-14 13:03:34,970 [INFO ]  ================== Model Architecture=================
2025-10-14 13:03:34,971 [INFO ]  HNeRV(
  (encoder): ConvNeXt(
    (downsample_layers): ModuleList(
      (0): Sequential(
        (0): Conv2d(3, 64, kernel_size=(5, 5), stride=(5, 5))
        (1): LayerNorm()
      )
      (1-2): 2 x Sequential(
        (0): LayerNorm()
        (1): Conv2d(64, 64, kernel_size=(4, 4), stride=(4, 4))
      )
      (3): Sequential(
        (0): LayerNorm()
        (1): Conv2d(64, 64, kernel_size=(2, 2), stride=(2, 2))
      )
      (4): Sequential(
        (0): LayerNorm()
        (1): Conv2d(64, 16, kernel_size=(2, 2), stride=(2, 2))
      )
    )
    (stages): ModuleList(
      (0-3): 4 x Sequential(
        (0): Block(
          (dwconv): Conv2d(64, 64, kernel_size=(7, 7), stride=(1, 1), padding=(3, 3), groups=64)
          (norm): LayerNorm()
          (pwconv1): Linear(in_features=64, out_features=256, bias=True)
          (act): GELU(approximate='none')
          (pwconv2): Linear(in_features=256, out_features=64, bias=True)
          (drop_path): Identity()
        )
      )
      (4): Sequential(
        (0): Block(
          (dwconv): Conv2d(16, 16, kernel_size=(7, 7), stride=(1, 1), padding=(3, 3), groups=16)
          (norm): LayerNorm()
          (pwconv1): Linear(in_features=16, out_features=64, bias=True)
          (act): GELU(approximate='none')
          (pwconv2): Linear(in_features=64, out_features=16, bias=True)
          (drop_path): Identity()
        )
      )
    )
  )
  (decoder): ModuleList(
    (0): Conv2d(16, 92, kernel_size=(1, 1), stride=(1, 1))
    (1): NeRVBlock(
      (conv): Sequential(
        (0): Conv2d(92, 1925, kernel_size=(1, 1), stride=(1, 1))
        (1): PixelShuffle(upscale_factor=5)
      )
      (norm): Identity()
      (act): GELU(approximate='none')
    )
    (2): NeRVBlock(
      (conv): Sequential(
        (0): Conv2d(77, 1024, kernel_size=(3, 3), stride=(1, 1), padding=(1, 1))
        (1): PixelShuffle(upscale_factor=4)
      )
      (norm): Identity()
      (act): GELU(approximate='none')
    )
    (3): NeRVBlock(
      (conv): Sequential(
        (0): Conv2d(64, 848, kernel_size=(5, 5), stride=(1, 1), padding=(2, 2))
        (1): PixelShuffle(upscale_factor=4)
      )
      (norm): Identity()
      (act): GELU(approximate='none')
    )
    (4): NeRVBlock(
      (conv): Sequential(
        (0): Conv2d(53, 176, kernel_size=(5, 5), stride=(1, 1), padding=(2, 2))
        (1): PixelShuffle(upscale_factor=2)
      )
      (norm): Identity()
      (act): GELU(approximate='none')
    )
    (5): NeRVBlock(
      (conv): Sequential(
        (0): Conv2d(44, 148, kernel_size=(5, 5), stride=(1, 1), padding=(2, 2))
        (1): PixelShuffle(upscale_factor=2)
      )
      (norm): Identity()
      (act): GELU(approximate='none')
    )
  )
  (head_layer): Conv2d(37, 3, kernel_size=(3, 3), stride=(1, 1), padding=(1, 1))
)
2025-10-14 13:03:34,971 [INFO ]  Encoder_0.31M_Decoder_2.65M_Total_2.66M
2025-10-14 13:03:34,971 [INFO ]  => loading checkpoint 'results/HNeRV_Bunny_1280x640/Bunny_e300_b1_lr0.0005_l2/Encoder_0.31M_Decoder_2.65M_Total_2.66M/epoch300.pth'
2025-10-14 13:03:35,173 [INFO ]  =======================Full-precision model========================
2025-10-14 13:03:35,805 [INFO ]  [2025/10/14 13:03:35], Eval at Step [1/132], FPS 17.3, PSNR 36.26, MS-SSIM 0.9829
…
2025-10-14 13:03:37,728 [INFO ]  [2025/10/14 13:03:37], Eval at Step [132/132], FPS 160.6, PSNR 37.57, MS-SSIM 0.9861
2025-10-14 13:03:37,818 [INFO ]  Evaluation ... 
 2025_10_14_13_03_35 Results for checkpoint: results/HNeRV_Bunny_1280x640/Bunny_e300_b1_lr0.0005_l2/Encoder_0.31M_Decoder_2.65M_Total_2.66M/epoch300.pth
best_pred_seen_psnr: 37.57 | best_pred_seen_ssim: 0.9861 | best_pred_unseen_psnr: 0.0 | best_pred_unseen_ssim: 0.0 | 
2025-10-14 13:03:37,835 [INFO ]  quantized model architecture: QuantModel(
  (model): HNeRV(
    (encoder): ConvNeXt(
      (downsample_layers): ModuleList(
        (0): Sequential(
          (0): Conv2d(3, 64, kernel_size=(5, 5), stride=(5, 5))
          (1): LayerNorm()
        )
        (1-2): 2 x Sequential(
          (0): LayerNorm()
          (1): Conv2d(64, 64, kernel_size=(4, 4), stride=(4, 4))
        )
        (3): Sequential(
          (0): LayerNorm()
          (1): Conv2d(64, 64, kernel_size=(2, 2), stride=(2, 2))
        )
        (4): Sequential(
          (0): LayerNorm()
          (1): Conv2d(64, 16, kernel_size=(2, 2), stride=(2, 2))
        )
      )
      (stages): ModuleList(
        (0-3): 4 x Sequential(
          (0): Block(
            (dwconv): Conv2d(64, 64, kernel_size=(7, 7), stride=(1, 1), padding=(3, 3), groups=64)
            (norm): LayerNorm()
            (pwconv1): Linear(in_features=64, out_features=256, bias=True)
            (act): GELU(approximate='none')
            (pwconv2): Linear(in_features=256, out_features=64, bias=True)
            (drop_path): Identity()
          )
        )
        (4): Sequential(
          (0): Block(
            (dwconv): Conv2d(16, 16, kernel_size=(7, 7), stride=(1, 1), padding=(3, 3), groups=16)
            (norm): LayerNorm()
            (pwconv1): Linear(in_features=16, out_features=64, bias=True)
            (act): GELU(approximate='none')
            (pwconv2): Linear(in_features=64, out_features=16, bias=True)
            (drop_path): Identity()
          )
        )
      )
    )
    (decoder): ModuleList(
      (0): QuantModule(
        16, 92, kernel_size=(1, 1), stride=(1, 1)
        (weight_quantizer): UniformAffineQuantizer(bit=2, scale_method=max, symmetric=False, channel_wise=True,)
        (bias_quantizer): UniformAffineQuantizer(bit=2, scale_method=max, symmetric=False, channel_wise=True,)
…
