2025-10-14 05:23:03,449 [INFO ]  Logging file is results/HNeRV_Bunny_1280x640/Bunny_e300_b1_lr0.0005_l2/Encoder_0.31M_Decoder_2.65M_Total_2.66M/network-wise_calib/hadamard-False_max-init_batch2_CW_weight0.01_brange20-2_warmup0.2_lr0.003/20251014_052303.log
2025-10-14 05:23:03,449 [INFO ]  [PID] 1305875
2025-10-14 05:23:03,449 [INFO ]  ================== Model Architecture=================
2025-10-14 05:23:03,450 [INFO ]  HNeRV(
  (encoder): ConvNeXt(
    (downsample_layers): ModuleList(
      (0): Sequential(
        (0): Conv2d(3, 64, kernel_size=(5, 5), stride=(5, 5))
        (1): LayerNorm()
      )
      (1-2): 2 x Sequential(
        (0): LayerNorm()
        (1): Conv2d(64, 64, kernel_size=(4, 4), stride=(4, 4))
      )
      (3): Sequential(
        (0): LayerNorm()
        (1): Conv2d(64, 64, kernel_size=(2, 2), stride=(2, 2))
      )
      (4): Sequential(
        (0): LayerNorm()
        (1): Conv2d(64, 16, kernel_size=(2, 2), stride=(2, 2))
      )
    )
    (stages): ModuleList(
      (0-3): 4 x Sequential(
        (0): Block(
          (dwconv): Conv2d(64, 64, kernel_size=(7, 7), stride=(1, 1), padding=(3, 3), groups=64)
          (norm): LayerNorm()
          (pwconv1): Linear(in_features=64, out_features=256, bias=True)
          (act): GELU(approximate='none')
          (pwconv2): Linear(in_features=256, out_features=64, bias=True)
          (drop_path): Identity()
        )
      )
      (4): Sequential(
        (0): Block(
          (dwconv): Conv2d(16, 16, kernel_size=(7, 7), stride=(1, 1), padding=(3, 3), groups=16)
          (norm): LayerNorm()
          (pwconv1): Linear(in_features=16, out_features=64, bias=True)
          (act): GELU(approximate='none')
          (pwconv2): Linear(in_features=64, out_features=16, bias=True)
          (drop_path): Identity()
        )
      )
    )
  )
  (decoder): ModuleList(
    (0): Conv2d(16, 92, kernel_size=(1, 1), stride=(1, 1))
    (1): NeRVBlock(
      (conv): Sequential(
        (0): Conv2d(92, 1925, kernel_size=(1, 1), stride=(1, 1))
        (1): PixelShuffle(upscale_factor=5)
      )
      (norm): Identity()
      (act): GELU(approximate='none')
    )
    (2): NeRVBlock(
      (conv): Sequential(
        (0): Conv2d(77, 1024, kernel_size=(3, 3), stride=(1, 1), padding=(1, 1))
        (1): PixelShuffle(upscale_factor=4)
      )
      (norm): Identity()
      (act): GELU(approximate='none')
    )
    (3): NeRVBlock(
      (conv): Sequential(
        (0): Conv2d(64, 848, kernel_size=(5, 5), stride=(1, 1), padding=(2, 2))
        (1): PixelShuffle(upscale_factor=4)
      )
      (norm): Identity()
      (act): GELU(approximate='none')
    )
    (4): NeRVBlock(
      (conv): Sequential(
        (0): Conv2d(53, 176, kernel_size=(5, 5), stride=(1, 1), padding=(2, 2))
        (1): PixelShuffle(upscale_factor=2)
      )
      (norm): Identity()
      (act): GELU(approximate='none')
    )
    (5): NeRVBlock(
      (conv): Sequential(
        (0): Conv2d(44, 148, kernel_size=(5, 5), stride=(1, 1), padding=(2, 2))
        (1): PixelShuffle(upscale_factor=2)
      )
      (norm): Identity()
      (act): GELU(approximate='none')
    )
  )
  (head_layer): Conv2d(37, 3, kernel_size=(3, 3), stride=(1, 1), padding=(1, 1))
)
2025-10-14 05:23:03,451 [INFO ]  Encoder_0.31M_Decoder_2.65M_Total_2.66M
2025-10-14 05:23:03,451 [INFO ]  => loading checkpoint 'results/HNeRV_Bunny_1280x640/Bunny_e300_b1_lr0.0005_l2/Encoder_0.31M_Decoder_2.65M_Total_2.66M/epoch300.pth'
2025-10-14 05:23:03,481 [INFO ]  =======================Full-precision model========================
2025-10-14 05:23:04,460 [INFO ]  [2025/10/14 05:23:04], Eval at Step [1/132], FPS 13.2, PSNR 36.26, MS-SSIM 0.9829
…
2025-10-14 05:23:06,638 [INFO ]  [2025/10/14 05:23:06], Eval at Step [132/132], FPS 154.4, PSNR 37.57, MS-SSIM 0.9861
2025-10-14 05:23:06,828 [INFO ]  Evaluation ... 
 2025_10_14_05_23_03 Results for checkpoint: results/HNeRV_Bunny_1280x640/Bunny_e300_b1_lr0.0005_l2/Encoder_0.31M_Decoder_2.65M_Total_2.66M/epoch300.pth
best_pred_seen_psnr: 37.57 | best_pred_seen_ssim: 0.9861 | best_pred_unseen_psnr: 0.0 | best_pred_unseen_ssim: 0.0 | 
2025-10-14 05:23:06,834 [INFO ]  quantized model architecture: QuantModel(
  (model): HNeRV(
    (encoder): ConvNeXt(
      (downsample_layers): ModuleList(
        (0): Sequential(
          (0): Conv2d(3, 64, kernel_size=(5, 5), stride=(5, 5))
          (1): LayerNorm()
        )
        (1-2): 2 x Sequential(
          (0): LayerNorm()
          (1): Conv2d(64, 64, kernel_size=(4, 4), stride=(4, 4))
        )
        (3): Sequential(
          (0): LayerNorm()
          (1): Conv2d(64, 64, kernel_size=(2, 2), stride=(2, 2))
        )
        (4): Sequential(
          (0): LayerNorm()
          (1): Conv2d(64, 16, kernel_size=(2, 2), stride=(2, 2))
        )
      )
      (stages): ModuleList(
        (0-3): 4 x Sequential(
          (0): Block(
            (dwconv): Conv2d(64, 64, kernel_size=(7, 7), stride=(1, 1), padding=(3, 3), groups=64)
            (norm): LayerNorm()
            (pwconv1): Linear(in_features=64, out_features=256, bias=True)
            (act): GELU(approximate='none')
            (pwconv2): Linear(in_features=256, out_features=64, bias=True)
            (drop_path): Identity()
          )
        )
        (4): Sequential(
          (0): Block(
            (dwconv): Conv2d(16, 16, kernel_size=(7, 7), stride=(1, 1), padding=(3, 3), groups=16)
            (norm): LayerNorm()
            (pwconv1): Linear(in_features=16, out_features=64, bias=True)
            (act): GELU(approximate='none')
            (pwconv2): Linear(in_features=64, out_features=16, bias=True)
            (drop_path): Identity()
          )
        )
      )
    )
    (decoder): ModuleList(
      (0): QuantModule(
        16, 92, kernel_size=(1, 1), stride=(1, 1)
        (weight_quantizer): UniformAffineQuantizer(bit=6, scale_method=max, symmetric=False, channel_wise=True,)
        (bias_quantizer): UniformAffineQuantizer(bit=6, scale_method=max, symmetric=False, channel_wise=True,)
…
