2025-10-09 13:47:26,333 [INFO ]  Logging file is results/HNeRV_Bunny_1280x640/Bunny_e300_b1_lr0.0005_l2/Encoder_0.31M_Decoder_2.65M_Total_2.66M/20251009_134726.log
2025-10-09 13:47:26,334 [INFO ]  [PID] 3010310
2025-10-09 13:47:26,334 [INFO ]  ================== Model Architecture=================
2025-10-09 13:47:26,336 [INFO ]  HNeRV(
  (encoder): ConvNeXt(
    (downsample_layers): ModuleList(
      (0): Sequential(
        (0): Conv2d(3, 64, kernel_size=(5, 5), stride=(5, 5))
        (1): LayerNorm()
      )
      (1-2): 2 x Sequential(
        (0): LayerNorm()
        (1): Conv2d(64, 64, kernel_size=(4, 4), stride=(4, 4))
      )
      (3): Sequential(
        (0): LayerNorm()
        (1): Conv2d(64, 64, kernel_size=(2, 2), stride=(2, 2))
      )
      (4): Sequential(
        (0): LayerNorm()
        (1): Conv2d(64, 16, kernel_size=(2, 2), stride=(2, 2))
      )
    )
    (stages): ModuleList(
      (0-3): 4 x Sequential(
        (0): Block(
          (dwconv): Conv2d(64, 64, kernel_size=(7, 7), stride=(1, 1), padding=(3, 3), groups=64)
          (norm): LayerNorm()
          (pwconv1): Linear(in_features=64, out_features=256, bias=True)
          (act): GELU(approximate='none')
          (pwconv2): Linear(in_features=256, out_features=64, bias=True)
          (drop_path): Identity()
        )
      )
      (4): Sequential(
        (0): Block(
          (dwconv): Conv2d(16, 16, kernel_size=(7, 7), stride=(1, 1), padding=(3, 3), groups=16)
          (norm): LayerNorm()
          (pwconv1): Linear(in_features=16, out_features=64, bias=True)
          (act): GELU(approximate='none')
          (pwconv2): Linear(in_features=64, out_features=16, bias=True)
          (drop_path): Identity()
        )
      )
    )
  )
  (decoder): ModuleList(
    (0): Conv2d(16, 92, kernel_size=(1, 1), stride=(1, 1))
    (1): NeRVBlock(
      (conv): Sequential(
        (0): Conv2d(92, 1925, kernel_size=(1, 1), stride=(1, 1))
        (1): PixelShuffle(upscale_factor=5)
      )
      (norm): Identity()
      (act): GELU(approximate='none')
    )
    (2): NeRVBlock(
      (conv): Sequential(
        (0): Conv2d(77, 1024, kernel_size=(3, 3), stride=(1, 1), padding=(1, 1))
        (1): PixelShuffle(upscale_factor=4)
      )
      (norm): Identity()
      (act): GELU(approximate='none')
    )
    (3): NeRVBlock(
      (conv): Sequential(
        (0): Conv2d(64, 848, kernel_size=(5, 5), stride=(1, 1), padding=(2, 2))
        (1): PixelShuffle(upscale_factor=4)
      )
      (norm): Identity()
      (act): GELU(approximate='none')
    )
    (4): NeRVBlock(
      (conv): Sequential(
        (0): Conv2d(53, 176, kernel_size=(5, 5), stride=(1, 1), padding=(2, 2))
        (1): PixelShuffle(upscale_factor=2)
      )
      (norm): Identity()
      (act): GELU(approximate='none')
    )
    (5): NeRVBlock(
      (conv): Sequential(
        (0): Conv2d(44, 148, kernel_size=(5, 5), stride=(1, 1), padding=(2, 2))
        (1): PixelShuffle(upscale_factor=2)
      )
      (norm): Identity()
      (act): GELU(approximate='none')
    )
  )
  (head_layer): Conv2d(37, 3, kernel_size=(3, 3), stride=(1, 1), padding=(1, 1))
)
2025-10-09 13:47:26,336 [INFO ]  Encoder_0.31M_Decoder_2.65M_Total_2.66M
2025-10-09 13:47:26,338 [INFO ]  begin training in cuda:0
2025-10-09 13:47:28,367 [INFO ]  [2025/10/09 13:47:28], Epoch[1/300], Step [1/132], lr:5.00e-05 pred_PSNR: 11.59
2025-10-09 13:47:36,277 [INFO ]  [2025/10/09 13:47:36], Epoch[1/300], Step [51/132], lr:5.57e-05 pred_PSNR: 12.18
…
